…
1 = nn.Conv2d(input1.C, 16, 3)(input1) output2 = nn.Conv2d(input2.C, 16, 3)(input2) final_output = output1 + output2 model = SymbolicModel(inputs=(input1, input2), outputs=final_output) model ``` ``` SymbolicModel( (Conv2d_1): Conv2d(3, 16, kernel_size=(3, 3), stride=(1, 1)) (Conv2d_2): Conv2d(3, 16, kernel_size=(3, 3), stride=(1, 1)) (AddOpLayer_1): AddOpLayer() ) ``` Keras-like summary is available as well: ``` >>> model.summary() ___________________________________________________________ Layer Output shape Params Parent =========================================================== 1 Input_1 (None, 3, 32, 32) 0 2 Input_2 (None, 3, 32, 32) 0 3 Conv2d_1 (None, 16, 30, 30) 448 1 4 Conv2d_2 (None, 16, 30, 30) 448 2 5* AddOpLayer_1 (None, 16, 30, 30) 0 3,4 =========================================================== Total params: 896 Trainable params: 896 Non-trainable params: 0 ___________________________________________________________ ``` Pytorch Symbolic is actually more powerful than Keras Functional API, because it can be used to define graphs of operations over arbitrary Python objects. So if your `torch.nn.Module` operates on dictionarie
…
