…
.C, 16, 3)(input2)\nfinal_output = output1 + output2\n\nmodel = SymbolicModel(inputs=(input1, input2), outputs=final_output)\nmodel\n```\n```\nSymbolicModel(\n  (Conv2d_1): Conv2d(3, 16, kernel_size=(3, 3), stride=(1, 1))\n  (Conv2d_2): Conv2d(3, 16, kernel_size=(3, 3), stride=(1, 1))\n  (AddOpLayer_1): AddOpLayer()\n)\n```\n\nKeras-like summary is available as well:\n```\n>>> model.summary()\n___________________________________________________________\n     Layer          Output shape         Params   Parent   \n===========================================================\n1    Input_1        (None, 3, 32, 32)    0                 \n2    Input_2        (None, 3, 32, 32)    0                 \n3    Conv2d_1       (None, 16, 30, 30)   448      1        \n4    Conv2d_2       (None, 16, 30, 30)   448      2        \n5*   AddOpLayer_1   (None, 16, 30, 30)   0        3,4      \n===========================================================\nTotal params: 896\nTrainable params: 896\nNon-trainable params: 0\n___________________________________________________________\n```\n\nPytorch Symbolic is actually more powerful than Keras Functional API, because it can be used to define graphs of operations over arbitrary Python objects. So if your `torch.nn.Module` o
…
